models/IGNNK_bcn_250iter_2023-11-13 16:30:16.pth (torch, 125143 bytes, 5 tensors)

GNN1.Theta1 f4 [3, 100]
0.025287442 -0.08555867 0.09634263 0.0034256936 -0.063537516 -0.07213618 0.029529117 0.074288204
0.016009722 0.08080042 0.05350709 0.04821929 0.06377139 0.085957505 -0.07241414 -0.08775269
0.0115368925 0.079007104 0.02889616 -0.07561004 -0.014282569 0.03282008 0.0059970566 -0.0865041
-0.06053953 -0.03944878 -0.053671982 0.044739 0.069722705 0.037476607 -0.015984416 -0.08598565
0.044644807 -0.040758587 -0.0543718 0.07014168 0.0029635788 0.037786193 0.07281216 0.0900513
0.03147532 -0.09339004 0.055052973 -0.011171031 0.0037370448 -0.07044262 -0.09375404 -0.072082266
-0.021571143 0.0005992821 0.08261137 0.06465691 0.100082606 0.00785737 0.038508322 0.06290303
0.066576846 -0.018751228 -0.00025535433 -0.029596325 -0.020294368 -0.060307454 0.066672534 -0.09384747
0.03478427 -0.048474874 0.036498185 0.04052049 -0.09629229 -0.06095283 -0.071261674 0.018147225
-0.016846508 -0.024613528 0.076800495 0.04263698 0.09560395 -0.11438065 -0.014376162 -0.0020206377
-0.054256078 0.00065884594 0.05592642 -0.0049199415 -0.08687912 -0.07720067 -0.014200187 0.076616585
0.08316204 0.061100952 0.09313633 0.06863585 -0.102790646 -0.038233757 0.09335777 -0.042880703
-0.005258585 -0.075039215 -0.021162093 0.0044134143 -0.09108226 -0.07113242 0.094991475 -0.036253106
-0.034749713 -0.011146176 0.090363085 0.025809214 0.030096876 -0.061640747 -0.03178474 -0.032392453
0.053053696 -0.07255003 -0.0315655 -0.022706617 0.06323284 -0.041795254 -0.042742338 -0.019901307
-0.10641726 -0.07526574 -0.056086343 -0.0597721 0.085828185 0.03182225 0.08202426 0.015157969
-0.03280447 0.06175351 0.040898614 0.03937946 0.03765607 -0.020695185 -0.004009831 0.017085865
0.040439393 0.020948699 0.0010264856 -0.066254094 -0.046757054 -0.021931682 -0.07439401 0.010686243
0.09421182 -0.06526494 0.03525896 0.048912358 0.056210738 -0.08061757 0.093994685 -0.007895886
-0.058500495 -0.024661852 -0.06324189 -0.09617507 -0.007477077 -0.060259964 0.064502515 0.036537513
0.046625912 0.05275013 0.056674063 -0.03596856 -0.014909437 -0.06336743 -0.035402115 0.06747995
0.06433217 0.052934527 0.06458449 -0.041893385 0.06072222 -0.026806254 0.09931268 -0.0933098
0.08627176 -0.07361295 -0.06119113 0.088012464 0.05834757 -0.035105348 0.017208215 0.08389696
-0.065292045 0.004269171 -0.011003709 0.08034658 0.09081232 -0.0026726958 -0.019829428 -0.042356946
-0.022360649 0.074182786 -0.051948953 -0.09102257 -0.09259767 -0.0011681883 -0.08346378 -0.03271396
-0.035230417 0.017682815 0.0007062525 -0.03808966 0.042369317 -0.095337026 -0.078269444 0.07871924
-0.06930533 -0.06346681 0.04370723 -0.04373337 0.05968729 0.05411037 -0.029012037 0.057145596
-0.0055165114 0.07416645 0.04878025 -0.043490198 -0.07368511 0.0136573 0.046902366 0.06291051
0.020735517 -0.053610288 -0.046994664 0.09882702 -0.0006130644 -0.024584351 0.092885986 0.052206762
0.00068861904 -0.011392427 -0.030599583 -0.017559698 -0.08675858 0.034367174 0.018546289 -0.07913654
0.016978618 -0.06471342 -0.097566836 -0.09511452 0.083558634 -0.068564445 0.0030963442 0.028060498
0.023363927 0.0032353997 -0.0076983087 -0.053289987 -0.025367469 0.005065286 0.021619415 0.096587956
00000000: 9c27 cf3c 6239 afbd 494f c53d 9a81 603b
00000010: f51f 82bd 22bc 93bd 0ce7 f13c 6a24 983d
00000020: d226 833c b17a a53d 402a 5b3d 9781 453d
00000030: 939a 823d 7d0a b03d dd4d 94bd afb7 b3bd
00000040: 3c05 3d3c 7ace a13d a4b7 ec3c 70d9 9abd
00000050: 7001 6abc 596e 063d f582 c43b 1029 b1bd
00000060: 4cf8 77bd 0b95 21bd 27d7 5bbd 3e40 373d
00000070: c7ca 8e3d 1281 193d c0f1 82bc 3f19 b0bd
00000080: 79dd 363d 7af2 26bd f7b4 5ebd 71a6 8f3d
00000090: 9a38 423b b2c5 1a3d 8b1e 953d d16c b83d
000000a0: 44ec 003d 4743 bfbd 3a7f 613d b306 37bc
000000b0: 35e9 743b 3844 90bd 1e02 c0bd de9f 93bd
000000c0: f7b5 b0bc 2419 1d3a 2630 a93d d86a 843d
000000d0: 1cf8 cc3d 33bc 003c e7ba 1d3d 4ed3 803d
000000e0: 7159 883d 2d9c 99bc 14e1 85b9 fe73 f2bc
000000f0: 6040 a6bc f304 77bd 9c8b 883d 1a33 c0bd
00000100: f379 0e3d 978d 46bd 1f7f 153d d0f8 253d
00000110: e434 c5bd ada9 79bd a4f1 91bd 7da9 943c
00000120: b001 8abc 4fa2 c9bc 9449 9d3d 1da4 2e3d
00000130: 01cc c33d 6740 eabd fe89 6bbc ad6c 04bb
00000140: 9f3b 5ebd 67b6 2c3a 1a13 653d 7637 a1bb
00000150: aeed b1bd 631b 9ebd e7a7 68bc 28e9 9c3d
00000160: dc50 aa3d fe44 7a3d 43be be3d f490 8c3d
00000170: e783 d2bd 009b 1cbd 5c32 bf3d ada3 2fbd
00000180: 3550 acbb 29ae 99bd 205c adbc 679e 903b
00000190: 5689 babd e0ad 91bd e48a c23d 237e 14bd
000001a0: b755 0ebd 739e 36bc 4810 b93d d86d d33c
000001b0: b98d f63c 027b 7cbd b730 02bd f3ad 04bd
000001c0: d54e 593d 1c95 94bd d34a 01bd 3a03 babc
000001d0: 3880 813d 8031 2bbd 9712 2fbd 1108 a3bc
000001e0: 4bf1 d9bd ed24 9abd cbba 65bd 97d3 74bd
000001f0: b0c6 af3d 0c58 023d 56fc a73d 2159 783c
00000200: fb5d 06bd 40f1 7c3d 4e85 273d 5b4c 213d
00000210: 403d 1a3d f388 a9bc e764 83bb a8f7 8b3c
00000220: c7a3 253d 9b9c ab3c 248b 863a 3ab0 87bd
00000230: 5384 3fbd 12aa b3bc e35b 98bd 5a15 2f3c
00000240: 20f2 c03d a0a9 85bd b36b 103d 5358 483d
00000250: 3b3d 663d d31a a5bd 4980 c03d bf5d 01bc
00000260: 379e 6fbd a707 cabc f784 81bd 6ff7 c4bd
00000270: 4502 f5bb 27d3 76bd e519 843d 5ca8 153d
00000280: d0fa 3e3d 8510 583d 1023 683d c553 13bd
00000290: b646 74bc c8c6 81bd cf01 11bd ee32 8a3d
000002a0: 96c0 833d e0d1 583d e044 843d 6698 2bbd
000002b0: ddb7 783d ca98 dbbc 7264 cb3d 3519 bfbd
000002c0: 40af b03d 63c2 96bd 8da3 7abd e13f b43d
000002d0: ddfd 6e3d a0ca 0fbd 3ef8 8c3c 2bd2 ab3d
000002e0: d6b7 85bd 67e4 8b3b e748 34bc bf8c a43d
000002f0: cffb b93d 6528 2fbb 5371 a2bc 7a7e 2dbd
00000300: ae2d b7bc 25ed 973d 6dc8 54bd 0b6a babd
00000310: d9a3 bdbd e51d 99ba 0fef aabd 13ff 05bd
00000320: c54d 10bd 8ddb 903c ce23 393a e703 1cbd
00000330: 738b 2d3d 0f40 c3bd bb4b a0bd 8e37 a13d
00000340: f4ef 8dbd e3fa 81bd 5a06 333d c321 33bd
00000350: a97a 743d d6a2 5d3d a7aa edbc 8011 6a3d
00000360: dac3 b4bb 94e4 973d cdcd 473d c722 32bd
00000370: 38e8 96bd dec2 5f3c b21c 403d 3ad7 803d
00000380: 88dd a93c 7696 5bbd 7a7d 40bd d265 ca3d
00000390: 0eb6 20ba 1f65 c9bc 023b be3d c2d6 553d
000003a0: 7184 343a 4da7 3abc faab fabc 5bd9 8fbc
000003b0: 7bae b1bd 98c4 0c3d 63ee 973c 5712 a2bd
000003c0: be16 8b3c 7888 84bd 1fd1 c7bd 67cb c2bd
000003d0: ca20 ab3d 846b 8cbd 09ec 4a3b 21df e53c
000003e0: b565 bf3c 0009 543b 1842 fcbb 9a46 5abd
000003f0: 70cf cfbc b3fa a53b 331b b13c e8cf c53d

GNN1.bias f4 [100]
0.07639064 -0.025744332 -0.038568374 -0.010390199 0.025431128 -0.05753199 -0.043602996 6.7285255e-05
0.051586308 0.06719453 -0.08272326 0.06228775 0.01268522 0.025124667 -0.028149618 -0.090877846
-0.00032109057 0.027368892 0.032789476 0.0302039 0.08325442 0.022503912 0.06605822 -0.018874789
0.0695903 0.050125666 -0.0461451 -0.017896678 0.09861 -0.07103566 -0.05213791 0.095845744
0.030172465 -0.0917746 -0.08897052 -0.027822217 -0.08134075 0.006957649 0.0025753868 -0.026656725
0.033896856 0.088913724 -0.013332269 -0.07838187 0.08925128 0.081780374 0.051456567 0.093769744
0.015851114 0.0075673345 -0.03304049 0.012131082 0.09039062 -0.07903035 -0.03948699 0.01871947
-0.07305784 -0.09101516 0.09430507 0.0061518997 -0.06785369 0.010513227 -6.84834e-06 0.08451359
0.09772231 -0.052966 0.029314347 -0.027670266 -0.0470859 -0.051269915 0.05883549 0.08459526
0.06667156 0.055420287 0.052360896 -0.045704868 0.034594674 0.009905296 0.0057240864 0.09816332
-0.059285138 -0.062221885 -0.022343088 -0.00387913 0.09543287 -0.07383791 -0.004794538 0.044549987
0.05451265 -0.01900813 -0.09846174 -0.027386067 0.041111637 -0.010636673 0.048010133 -0.009159732
0.03297683 0.0689555 -0.015476469 -0.011472833
00000000: b272 9c3d c7e5 d2bc dff9 1dbd a73b 2abc
00000010: f154 d03c aaa6 6bbd 0e99 32bd 7f1b 8d38
00000020: 2a4c 533d 499d 893d d06a a9bd 7121 7f3d
00000030: abd5 4f3c 3fd2 cd3c 079a e6bc 2a1e babd
00000040: 0c58 a8b9 ba34 e03c 424e 063d 2b6e f73c
00000050: 4b81 aa3d 205a b83c 8849 873d 4d9f 9abc
00000060: 5c85 8e3d 9250 4d3d a502 3dbd 0e9c 92bc
00000070: 0af4 c93d 257b 91bd 908e 55bd c64a c43d
00000080: 3f2c f73c 52f4 bbbd 2d36 b6bd 6beb e3bc
00000090: fb95 a6bd fdfc e33b d2c7 283b 345f dabc
000000a0: 6ed7 0a3d 6618 b63d 976f 5abc ad86 a0bd
000000b0: 60c9 b63d 787c a73d 1fc4 523d 5a0a c03d
000000c0: 32da 813c 67f7 f73b 7755 07bd 72c1 463c
000000d0: b81e b93d aada a1bd 1cbd 21bd 9359 993c
000000e0: 599f 95bd 2866 babd 0423 c13d e095 c93b
000000f0: e0f6 8abd ac3f 2c3c cbca e5b6 7615 ad3d
00000100: a222 c83d e0f2 58bd a424 f03c c1ac e2bc
00000110: 25dd 40bd 6700 52bd 7cfd 703d 4840 ad3d
00000120: 198b 883d 6200 633d 6178 563d 0735 3bbd
00000130: 25b3 0d3d d349 223c 1e91 bb3b da09 c93d
00000140: f9d4 72bd 60dc 7ebd da08 b7bc 0039 7ebb
00000150: 4f72 c33d 5538 97bd 801b 9dbb 0c7a 363d
00000160: a848 5f3d f0b6 9bbc 4fa6 c9bd bf58 e0bc
00000170: ad64 283d 7145 2ebc 46a6 443d b312 16bc
00000180: b612 073d 8b38 8d3d 0491 7dbc 8df8 3bbc

GNN2.Theta1 f4 [300, 100]
-0.05587659 0.0791675 0.09612213 -0.0496519 0.01645788 -0.08529967 0.07159548 0.08170553
0.025074411 0.061239667 0.06498548 0.08959721 0.06204209 -0.024457209 -0.05218268 -0.018405564
-0.08301577 -0.0047509433 0.037112527 -0.054425873 -0.08034605 0.06796452 0.004917888 -0.021366298
0.0069379583 0.017611386 0.027300287 -0.077480726 -0.03647883 -0.051329363 0.010868586 0.044871796
-0.00068884145 -0.08756508 0.09509591 0.045338724 -0.054977037 -0.0074579176 0.07511301 -0.0013190389
-0.029542565 -0.065214984 0.09046176 -0.052643962 0.07074007 -0.02703189 0.083138146 0.005283052
-0.04036519 0.037799835 -0.080382705 -0.07548883 -0.052468672 -0.09399589 -0.012295585 -0.0012577408
-0.07263311 0.023057397 -0.019144474 -0.00030141303 0.059604324 -0.020887056 0.07351879 -0.07214811
-0.026042517 0.038428973 -0.03059225 0.073987335 0.09475249 -0.007527646 -0.035029978 0.013426351
-0.05918356 0.0011424065 0.004844259 -0.09464867 0.078522906 0.056146067 -0.05407015 0.05422209
0.040141772 -0.09725626 0.08490274 -0.09160363 0.02857384 0.10055202 0.068309665 -0.04660045
0.07175997 0.07685478 -0.07256775 0.07081614 0.047616422 0.06804201 0.0055286274 -0.066913925
0.020088792 -0.01097923 0.069575615 -0.022843402 -0.08975785 0.087394066 0.09549906 -0.09300117
-0.0465137 -0.07274158 -0.003226006 0.08916233 0.0044414164 0.03100526 0.0016347324 -0.042393703
-0.024228198 0.028495083 0.017387753 0.055303063 -0.086166546 -0.020893546 0.07366333 0.032537054
0.041345205 0.08060751 -0.01929407 0.05767435 0.063275956 -0.08967829 -0.03673649 -0.010148288
-0.015910173 -0.0023616196 0.011851549 -0.064365126 0.0020217013 -0.025351852 0.032262135 -0.049903866
0.023481559 0.0016129374 0.043830972 0.0044202567 -0.057362236 0.07303621 -0.058955055 -0.018250823
0.039231095 0.04435972 -0.07274271 -0.075174734 0.015703544 -0.028585045 -0.061327077 -0.026071334
-0.057397004 0.08663582 -0.0782611 -0.10031406 -0.024946524 0.053615328 -0.067660525 0.007387745
0.04624356 0.014660231 -0.053971924 0.052089542 -0.04531721 0.010933253 -0.032234546 -0.017863456
-0.005757082 0.09915312 0.003619462 -0.09410148 0.04962158 -0.04448383 -0.009277732 0.011945122
-0.07584722 0.08934889 -0.015555392 -0.079775214 -0.095295765 -0.031604134 0.031141115 -0.035831813
-0.059511583 -0.06332245 -0.003653511 -0.09063976 0.030919172 0.08419483 -0.017100276 -0.07071668
0.05584196 0.0662087 0.044306837 -0.067272045 -0.037685115 0.010800868 0.009562588 0.04842429
-0.0033063174 0.093932144 0.05955268 0.068921104 -0.0031571498 -0.021663666 -0.006349051 -0.07742732
-0.0053111794 -0.049604405 0.05927341 -0.05359893 -0.101871975 -0.0154981585 0.089374445 -0.057668865
0.0891203 -0.082622975 -0.07171742 0.07057045 -0.05907463 -0.001668174 0.083985046 -0.04751998
0.0255158 -0.038766745 -0.09125482 0.034543958 0.039015856 0.083840445 0.04696803 0.08702831
0.060703635 -0.076720305 0.087221466 -0.05416722 -0.0059810807 -0.053671945 -0.046593815 0.038083147
-0.08876659 -0.040423308 0.09046435 0.0113259675 0.08334245 -0.029156277 -0.014281814 -0.009164794
0.09861357 0.094964325 -0.07037017 0.07124102 -0.090998255 0.057091963 0.08794748 0.047735516
00000000: dade 64bd 9222 a23d aedb c43d ca5f 4bbd
00000010: add2 863c 98b1 aebd a7a0 923d 3b55 a73d
00000020: da68 cd3c 72d6 7a3d 1b17 853d be7e b73d
00000030: d91f 7e3d 7c5a c8bc 82bd 55bd 44c7 96bc
00000040: 2c04 aabd cdad 9bbb 4e03 183d aaed 5ebd
00000050: 788c a4bd fb30 8b3d 3c26 a13b 6008 afbc
00000060: d057 e33b c145 903c daa4 df3c 37ae 9ebd
00000070: d36a 15bd bd3e 52bd 2712 323c 7dcb 373d
00000080: 5e93 34ba 5255 b3bd a5c1 c23d 19b5 393d
00000090: 9a2f 61bd 8c61 f4bb dad4 993d 9ae3 acba
000000a0: 4003 f2bc 6f8f 85bd 0444 b93d 32a1 57bd
000000b0: 2be0 903d fb71 ddbc 5544 aa3d 741d ad3b
000000c0: f855 25bd 00d4 1a3d b09f a4bd e399 9abd
000000d0: 64e9 56bd eb80 c0bd 6c73 49bc c7da a4ba
000000e0: abc0 94bd dee2 bc3c dfd4 9cbc f906 9eb9
000000f0: aa23 743d 551b abbc 0591 963d 63c2 93bd
00000100: 1e57 d5bc b367 1d3d 999c fabc ac86 973d
00000110: 980d c23d 79aa f6bb 987b 0fbd 33fa 5b3c
00000120: 766a 72bd cdbc 953a 97bc 9e3b 29d7 c1bd
00000130: 9ed0 a03d 6bf9 653d a978 5dbd fb17 5e3d
00000140: b36b 243d 4a2e c7bd 7de1 ad3d af9a bbbd
00000150: b013 ea3c 38ee cd3d f0e5 8b3d 1de0 3ebd
00000160: e4f6 923d 0a66 9d3d 679e 94bd 0d08 913d
00000170: 7009 433d 9c59 8b3d 7d29 b53b 2b0a 89bd
00000180: 4091 a43c 3ae2 33bc a97d 8e3d 1622 bbbc
00000190: f7d2 b7bd a9fb b23d 0395 c33d 6677 bebd
000001a0: 2685 3ebd 8af9 94bd 666b 53bb bd9a b63d
000001b0: 4d89 913b befe fd3c 8444 d63a 05a5 2dbd
000001c0: 377a c6bc 856e e93c c370 8e3c 7785 623d
000001d0: 1678 b0bd f128 abbc cddc 963d 9345 053d
000001e0: 9759 293d 8d15 a53d 990e 9ebc f03b 6c3d
000001f0: d396 813d 40a9 b7bd 0079 16bd 0145 26bc
00000200: 0d56 82bc 67c5 1abb 002d 423c ddd1 83bd
00000210: 857e 043b b0ae cfbc 4d25 043d ff67 4cbd
00000220: 665c c03c 3369 d33a 1b88 333d cdd7 903b
00000230: aaf4 6abd 0294 953d db7a 71bd c082 95bc
00000240: c9b0 203d 8ab2 353d 21fa 94bd 36f5 99bd
00000250: b8a4 803c 2f2b eabc 1a32 7bbd 8d93 d5bc
00000260: 1f19 6bbd 1f6e b13d 5b47 a0bd 7571 cdbd
00000270: a75c ccbc bf9b 5b3d 9a91 8abd e614 f23b
00000280: e369 3d3d 7731 703c aa11 5dbd d85b 553d
00000290: 8a9e 39bd 6321 333c 5f08 04bd 6256 92bc
000002a0: e7a5 bcbb ca10 cb3d 7f34 6d3b 47b8 c0bd
000002b0: ff3f 4b3d ad34 36bd a101 18bc 79b5 433c
000002c0: ca55 9bbd 8dfc b63d 0bdc 7ebc 3061 a3bd
000002d0: 6d2a c3bd 5673 01bd a71b ff3c 61c4 12bd
000002e0: 6bc2 73bd 33af 81bd be6f 6fbb 57a1 b9bd
000002f0: 344a fd3c 576e ac3d e115 8cbc e8d3 90bd
00000300: 8aba 643d 6d98 873d 167b 353d edc5 89bd
00000310: b55b 1abd 20f6 303c 67ac 1c3c 8c58 463d
00000320: cdae 58bb 7f5f c03d 83ed 733d 8226 8d3d
00000330: 2fe8 4ebb 0078 b1bc b30b d0bb 3792 9ebd
00000340: 6709 aebb fd2d 4bbd adc8 723d 8d8a 5bbd
00000350: 41a2 d0bd fdeb 7dbc f309 b73d 3036 6cbd
00000360: b484 b63d 3c36 a9bd 95e0 92bd 3d87 903d
00000370: 3df8 71bd a2a6 daba 5a00 ac3d 50a4 42bd
00000380: 8306 d13c e1c9 1ebd cfe3 babd f77d 0d3d
00000390: 17cf 1f3d 8ab4 ab3d 8d61 403d e63b b23d
000003a0: 60a4 783d 891f 9dbd 2ba1 b23d 72de 5dbd
000003b0: f1fc c3bb 1dd7 5bbd 28d9 3ebd 13fd 1b3d
000003c0: 42cb b5bd e992 25bd 6045 b93d 8d90 393c
000003d0: 72af aa3d 25d9 eebc 45fe 69bc ef27 16bc
000003e0: e9f5 c93d a87c c23d 3c1e 90bd d0e6 913d
000003f0: 4b5d babd 43d9 693d cf1d b43d 5186 433d

GNN2.bias f4 [100]
-0.07472143 0.062608555 0.095925294 -0.0011036793 0.023421755 -0.08886259 -0.03509584 0.035216685
-0.055280875 0.040166866 0.04450294 -0.08445732 0.080601685 0.07623226 0.06260643 -0.007614816
-0.008936797 -0.06863936 -0.07250287 0.021611905 0.08559116 -0.011756238 0.027742531 0.0126416925
0.06621071 -0.005472719 -0.06658461 -0.034767095 -0.08717537 -0.096339345 0.03280747 0.08388407
0.095312506 0.058101356 -0.05128348 0.013309951 -0.029007634 -0.067351855 0.054636315 -0.04518343
-0.096593164 -0.017769242 -0.0057153916 -0.055966515 0.00885555 -0.00028681525 0.10109953 -0.017057044
0.09755252 0.050443444 -0.069002844 0.06914465 0.01708739 0.028970538 -0.00014758312 0.041882552
-0.055582643 0.017721957 0.076499365 0.08521017 0.0317625 0.094992995 -0.076212786 -0.05180523
0.054517213 0.008891321 -0.0062725185 -0.041434195 -0.025781428 0.08401532 -0.032108605 -0.09847667
0.046088982 -0.056061793 0.011589958 0.08914168 -0.0019931104 0.056693334 0.059688423 -0.043741968
0.038717613 0.022599004 -0.06688564 0.06572457 -0.06470916 0.066803776 0.091381975 0.048166618
0.033507902 -0.010958164 0.061176818 0.022738878 0.01855813 -0.021646177 0.08087213 -0.02401729
0.09022506 0.003828041 -0.040177274 0.09426918
00000000: 8d07 99bd ea38 803d 7b74 c43d 55a9 90ba
00000010: fbde bf3c 97fd b5bd a8c0 0fbd 5f3f 103d
00000020: 336e 62bd 0386 243d b748 363d f6f7 acbd
00000030: 7f12 a53d a91f 9c3d cd37 803d b585 f9bb
00000040: a56b 12bc cb92 8cbd 627c 94bd 730b b13c
00000050: 6b4a af3d 3c9d 40bc 4e44 e33c 1a1f 4f3c
00000060: 7b99 873d 7f54 b3bb 835d 88bd f167 0ebd
00000070: 0089 b2bd 904d c5bd 2061 063d 69cb ab3d
00000080: 3433 c33d b0fb 6d3d a00e 52bd fb11 5a3c
00000090: 6ba1 edbc c5ef 89bd 54ca 5f3d 4312 39bd
000000a0: a3d2 c5bd cd90 91bc 2e48 bbbb 253d 65bd
000000b0: de16 113c b15f 96b9 450d cf3d 37bb 8bbc
000000c0: 9ec9 c73d c99d 4e3d 5d51 8dbd b69b 8d3d
000000d0: dbfa 8b3c 9f53 ed3c 8bc0 1ab9 0a8d 2b3d
000000e0: a0aa 63bd a32d 913c b3ab 9c3d ab82 ae3d
000000f0: 6519 023d b08b c23d 7315 9cbd b931 54bd
00000100: 714d 5f3d e7ac 113c b389 cdbb e7b6 29bd
00000110: 9333 d3bc 3910 ac3d 5084 03bd 23ae c9bd
00000120: cdc7 3c3d 0da1 65bd cfe3 3d3c ea8f b63d
00000130: d89e 02bb 4537 683d d97b 743d c72a 33bd
00000140: 5c96 1e3d 8c21 b93c 57fb 88bd 9a9a 863d
00000150: 3c86 84bd 6bd0 883d 7926 bb3d 5c4a 453d
00000160: 953f 093d df89 33bc 8b94 7a3d e246 ba3c
00000170: 3807 983c 5353 b1bc 4aa0 a53d e8bf c4bc
00000180: ebc7 b83d dfdf 7a3b ed90 24bd 3310 c13d

GNN3.Theta1 f4 [300, 1]
0.13135947 0.64275265 0.43889424 -0.54572004 0.73261374 0.52247125 -0.058626033 -0.9248891
-0.20628117 0.6400071 0.94672173 -0.8924269 -0.06905172 -0.6115505 -0.7754094 -0.4227258
0.09149647 -0.6321769 0.72466177 0.36029756 0.49474216 -0.91896677 -0.8057008 0.3394521
0.366442 0.77982 -0.777024 -0.97584784 -0.41848066 -0.31158414 0.8181208 -0.56735694
0.21473143 -0.97540414 0.3628104 -0.6008086 -0.87665254 0.7215629 0.0030975975 0.18960635
-0.73034173 0.531082 -0.9364074 -0.36042845 -0.2870096 0.61706156 -0.6512849 0.26787403
-0.2577339 0.99761105 0.64333415 0.28309122 0.8403628 0.1946746 -0.79098845 -0.11098824
0.50672704 0.87048 0.19565053 0.40730906 -0.25843826 -0.27724105 0.7829286 0.39375386
0.035472136 -0.23079877 -0.5973214 0.021734737 -0.34299725 -0.90887976 -0.49156022 -0.21284378
-0.26860335 -0.49182084 0.6460604 0.47986853 0.24125485 -0.7771245 -0.108332336 -0.3544016
0.77213836 0.90639263 -0.12501544 0.26541266 0.002246596 0.3217673 0.52913564 0.31397548
0.36486965 -0.44584328 -0.36121365 0.32894772 -0.10469718 0.41289198 0.11906872 -0.64103186
0.9058128 -0.3361224 -0.8865137 0.2542729 -0.8667185 0.4074731 -0.3839556 -0.3966241
0.25256836 -0.10178419 -0.9059078 -0.25470513 0.7840715 0.90696603 -0.3420836 -0.15765071
0.46939442 0.68630314 0.8534054 0.24200411 0.058238067 0.1440137 0.19873478 -0.2840992
0.81081873 0.7129149 -0.880632 0.22340785 0.33662868 0.9561702 -0.771444 -0.14196672
0.08814084 0.45357051 -0.35275742 -0.66690934 -0.2076256 -0.051768236 0.7853576 -0.7710554
-0.12145419 -0.44261143 0.16335736 0.7492454 0.3561011 0.8998859 -0.2206447 -0.90071934
-0.18966283 0.16506931 -0.19357255 0.57635885 -0.52817947 -0.67574424 0.5818776 0.82102233
0.63898546 0.6631973 -0.6655079 0.42640984 0.26570186 -0.11885366 0.34625295 0.5060333
-0.7577289 0.0050523602 -0.7271497 -0.8553299 0.7524054 -0.6732295 0.91772974 -0.444049
-0.33501732 -0.7642802 -0.68739665 -0.9079496 0.9189721 -0.23269072 -0.60527635 0.6555568
0.2930134 0.66426665 -0.63509595 -0.8767067 0.1191431 0.106057204 -0.68901503 -0.32846648
-0.06426081 0.45334622 -0.41409943 0.6943569 0.4913673 -0.057783842 0.3841473 0.10527248
-0.96102566 0.61901534 -0.26940897 -0.7957467 0.97049177 -0.03491881 0.40413898 0.11781076
0.9452063 -0.22830378 -0.7759001 0.137888 0.31088838 0.7246304 0.25921714 0.4793995
0.46284243 0.08768437 0.4304982 0.904665 -0.47906625 0.84480643 0.22795789 0.39602962
-0.80698055 0.803908 0.92913723 0.158271 -0.9144041 -0.4899689 0.3630166 0.38924965
-0.543718 -0.6241878 0.81607896 -0.6021305 0.47660297 -0.4239432 0.67694557 -0.59135115
-0.3726576 0.057537384 0.28529057 -0.5693289 -0.087338746 -0.41313764 0.94327545 0.5772582
0.4119439 -0.32534137 -0.67274755 0.6166149 -0.29052246 0.5555375 0.17258261 0.30363017
-0.9444868 0.3365854 -0.7712398 -0.32994294 -0.9408431 0.56522375 0.044236485 0.90662616
00000000: 1983 063e 708b 243f bfb6 e03e 4fb4 0bbf
00000010: 938c 3b3f adc0 053f da21 70bd 88c5 6cbf
00000020: 5f3b 53be 81d7 233f 5b5c 723f 1776 64bf
00000030: fd6a 8dbd 938e 1cbf 3b81 46bf 846f d8be
00000040: 8062 bb3d 58d6 21bf 6f83 393f ec78 b83e
00000050: d84e fd3e 6841 6bbf 6842 4ebf aacc ad3e
00000060: 499e bb3e 49a2 473f 0beb 46bf 2ad1 79bf
00000070: 1943 d6be f587 9fbe 5d70 513f 4e3e 11bf
00000080: 8ee2 5b3e 16b4 79bf 49c2 b93e 98ce 19bf
00000090: 4d6c 60bf 59b8 383f 1001 4b3b 2b28 423e
000000a0: adf7 3abf fdf4 073f 65b8 6fbf 148a b8be
000000b0: ecf2 92be bff7 1d3f 9bba 26bf c926 893e
000000c0: b3f5 83be 7063 7f3f 8cb1 243f 55f1 903e
000000d0: 0422 573f c758 473e 387e 4abf cd4d e3bd
000000e0: ddb8 013f c7d7 5e3f 9d58 483e d08a d03e
000000f0: 0552 84be 8af2 8dbe 026e 483f 1b9a c93e
00000100: 3b4b 113d 8356 6cbe 0eea 18bf 0c0d b23c
00000110: 569d afbe 58ac 68bf c8ad fbbe b8f3 59be
00000120: 6186 89be f1cf fbbe 3764 253f 54b1 f53e
00000130: 830b 773e a2f1 46bf 58dd ddbd 2074 b5be
00000140: dcaa 453f 5909 683f 0c04 00be 2be4 873e
00000150: a03b 133b afbe a43e 6f75 073f 65c1 a03e
00000160: 32d0 ba3e 9245 e4be fff0 b8be d66b a83e
00000170: 7a6b d6bd 9466 d33e 4dda f33d aa1a 24bf
00000180: 59e3 673f 3c18 acbe 90f2 62bf 0f30 823e
00000190: 43e1 5dbf 50a0 d03e d495 c4be 5012 cbbe
000001a0: a450 813e 3b74 d0bd 93e9 67bf b668 82be
000001b0: e9b8 483f ed2e 683f 9525 afbe 306f 21be
000001c0: 7754 f03e 90b1 2f3f c778 5a3f edcf 773e
000001d0: 0a8b 6e3d 5478 133e 2181 4b3e 7375 91be
000001e0: d191 4f3f 9781 363f 1971 61bf 07c5 643e
000001f0: 985a ac3e 92c7 743f 5b7d 45bf b95f 11be
00000200: 2f83 b43d 653a e83e 9f9c b4be 92ba 2abf
00000210: ce9b 54be ee0a 54bd 320d 493f e363 45bf
00000220: f9bc f8bd f79d e2be 2747 273e 8cce 3f3f
00000230: e252 b63e ec5e 663f aff0 61be 8b95 66bf
00000240: f936 42be ee07 293e e237 46be 418c 133f
00000250: c536 07bf 93fd 2cbf eef5 143f 852e 523f
00000260: 8d94 233f 4cc7 293f ba5e 2abf 6452 da3e
00000270: 130a 883e 8c69 f3bd 1148 b13e 668b 013f
00000280: 85fa 41bf 458e a53b 7c26 3abf e6f6 5abf
00000290: a49d 403f c558 2cbf 56f0 6a3f 645a e3be
000002a0: 6487 abbe dea7 43bf 3af9 2fbf 636f 68bf
000002b0: c141 6b3f 7a46 6ebe 64f3 1abf 92d2 273f
000002c0: da05 963e 610d 2a3f a695 22bf da6f 60bf
000002d0: 4c01 f43d 8534 d93d 4a63 30bf c22c a8be
000002e0: 2c9b 83bd ff1c e83e d704 d4be 60c1 313f
000002f0: 7f94 fb3e c0ae 6cbd f4ae c43e 1999 d73d
00000300: c705 76bf ca77 1e3f f9ef 89be 0eb6 4bbf
00000310: 2672 783f 0707 0fbd 4eeb ce3e c546 f13d
00000320: 0af9 713f 77c8 69be 64a1 46bf 8332 0d3e
00000330: c32c 9f3e 6181 393f 1cb8 843e da73 f53e
00000340: aff9 ec3e dd93 b33d 436a dc3e 2098 673f
00000350: 2c48 f5be 3c45 583f cb6d 693e 65c4 ca3e
00000360: 4796 4ebf eacc 4d3f f0db 6d3f cb11 223e
00000370: 6316 6abf 34dd fabe 50dd b93e bb4b c73e
00000380: 1a31 0bbf c6ca 1fbf 8dea 503f 3925 1abf
00000390: 4e05 f43e 150f d9be 4e4c 2d3f ca62 17bf
000003a0: facc bebe 52ac 6b3d 9b11 923e 8abf 11bf
000003b0: a8de b2bd c786 d3be 807a 713f 32c7 133f
000003c0: 50ea d23e 2593 a6be 2f39 2cbf 79da 1d3f
000003d0: 5cbf 94be b537 0e3f 7fb9 303e 6a75 9b3e
000003e0: e3c9 71bf ec54 ac3e f96f 45bf 48ee a8be
000003f0: 18db 70bf 81b2 103f 5131 353d a718 683f
